…
+-------------------+--------+
| Max out degree    | 5      |
+-------------------+--------+
| Max path distance | 5      |
+-------------------+--------+
| Node dim          | 32     |
+-------------------+--------+
| Num heads         | 4      |
+-------------------+--------+
| Num layers        | 1      |
+-------------------+--------+
| Output dim        | 1      |
+-------------------+--------+
| Seed              | 16     |
+-------------------+--------+
| Test batch size   | 16     |
+-------------------+--------+
| Train batch size  | 16     |
+-------------------+--------+
Using GPU: 0
Graphormer(
  (node_in_lin): Linear(in_features=2, out_features=32, bias=True)
  (edge_in_lin): Linear(in_features=1, out_features=32, bias=True)
  (centrality_encoding): CentralityEncoding()
  (spatial_encoding): SpatialEncoding()
  (layers): ModuleList(
    (0): GraphormerEncoderLayer(
      (attention): GraphormerMultiHeadAttention(
        (heads): ModuleList(
          (0-3): 4 x GraphormerAttentionHead(
            (edge_encoding): EdgeEncoding()
            (q): Linear(in_features=32, out_features=32, bias=True)
            (k): Linear(in_features=32, out_features=32, bias=True)
            (v): Linear(in_features=32, out_features=32, bias=True)
          )
        )
        (linear): Linear(in_features=128, out_features=32, bias=True)
      )
      (ln_1): LayerNorm((32,), eps=1e-05, elementwise_affine=True)
      (ln_2): LayerNorm((32,), eps=1e-05, elementwise_affine=True)
      (ff): Linear(in_features=32, out_features=32, bias=True)
    )
  )
  (node_out_lin): Linear(in_features=32, out_features=1, bias=True)
)
Model Parameter: 19142
Using AdamW
+-------------------+--------+
|     Parameter     | Value  |
+===================+========+
| Edge dim          | 32     |
+-------------------+--------+
| Epochs            | 1      |
+-------------------+--------+
| Exp name          | Exp    |
+-------------------+--------+
| Gpu index         | 0      |
+-------------------+--------+
…
+-------------------+--------+
| Max out degree    | 5      |
+-------------------+--------+
| Max path distance | 5      |
+-------------------+--------+
| Node dim          | 64     |
+-------------------+--------+
| Num heads         | 4      |
+-------------------+--------+
| Num layers        | 1      |
+-------------------+--------+
| Output dim        | 1      |
+-------------------+--------+
| Seed              | 16     |
+-------------------+--------+
| Test batch size   | 8      |
+-------------------+--------+
| Train batch size  | 8      |
+-------------------+--------+
Using GPU: 0
Graphormer(
  (node_in_lin): Linear(in_features=2, out_features=64, bias=True)
  (edge_in_lin): Linear(in_features=1, out_features=64, bias=True)
  (centrality_encoding): CentralityEncoding()
  (spatial_encoding): SpatialEncoding()
  (layers): ModuleList(
    (0): GraphormerEncoderLayer(
      (attention): GraphormerMultiHeadAttention(
        (heads): ModuleList(
          (0-3): 4 x GraphormerAttentionHead(
            (edge_encoding): EdgeEncoding()
            (q): Linear(in_features=64, out_features=64, bias=True)
            (k): Linear(in_features=64, out_features=64, bias=True)
            (v): Linear(in_features=64, out_features=64, bias=True)
          )
        )
        (linear): Linear(in_features=256, out_features=64, bias=True)
      )
      (ln_1): LayerNorm((64,), eps=1e-05, elementwise_affine=True)
      (ln_2): LayerNorm((64,), eps=1e-05, elementwise_affine=True)
      (ff): Linear(in_features=64, out_features=64, bias=True)
    )
  )
  (node_out_lin): Linear(in_features=64, out_features=1, bias=True)
)
Model Parameter: 73094
Using AdamW
+-------------------+--------+
|     Parameter     | Value  |
+===================+========+
| Edge dim          | 64     |
+-------------------+--------+
| Epochs            | 200    |
+-------------------+--------+
| Exp name          | Exp    |
+-------------------+--------+
| Gpu index         | 0      |
+-------------------+--------+
…
